lenet5_mnist.pth (torch, 181310 bytes, 10 tensors)

conv1.weight f4 [6, 1, 5, 5]
0	0x3e25f40c	0.16206378
1	0x3e6b02b8	0.22950256
2	0xbc8c532d	-0.017129505
3	0x3d422e39	0.047407363
4	0xbe15c2c8	-0.14625084
5	0x3dc12606	0.094310805
6	0x3dad052d	0.08448253
7	0xbe1f0854	-0.1553052
8	0xbe764286	-0.24048814
9	0xbe537f79	-0.20654096
10	0xbd0a01c4	-0.03369309
11	0x3e4f749c	0.20259327
12	0xbe31958e	-0.17342207
13	0xbb2772e3	-0.0025550656
14	0xbcb9ae2b	-0.022666058
15	0xbe0db031	-0.13836743
16	0x3ec1a70c	0.3782276
17	0x3eb699c3	0.35664186
18	0x3ddbccbb	0.107324086
19	0xbd235be7	-0.039882567
20	0x3deb1c8e	0.11480056
21	0x3d13f7e0	0.036125064
22	0x3e9e8dba	0.30967504
23	0x3e35728d	0.17719479
24	0x3e80a400	0.25125122
25	0x3e8c5e8f	0.27415892
26	0x3e76b3f7	0.24092089
27	0x3ea6dc94	0.32590163
28	0x3eac958d	0.33707848
29	0x3e0fd267	0.14045106
30	0x3e133937	0.14377294
31	0x3d057f37	0.032592025
32	0x3e5b07d2	0.21389702
33	0x3e422d9a	0.18962708
34	0x3e8f13e1	0.27944854
35	0xbd7fe02b	-0.062469643
36	0x3c9e5129	0.01932581
37	0xbe2136cf	-0.15743564
38	0x3dcba411	0.099434026
39	0x3ea19d0e	0.31565136
40	0xbecf80de	-0.40528005
41	0xbe973697	-0.29533836
42	0xbe6a7783	-0.22897153
43	0xbe1b0e45	-0.15142162
44	0x3d1f30e2	0.038864978
45	0xbe0cd2b9	-0.1375226
46	0xbe958cd1	-0.29208997
47	0xbe74a0e2	-0.23889497
48	0xbe50ed67	-0.20403062
49	0xbdb1852b	-0.08667978
50	0xbe77e136	-0.24207005
51	0xbdd5de20	-0.104427576
52	0x3e0aa4ca	0.13539425
53	0x3e5516fd	0.2080955
54	0x3d7300a7	0.059326794
55	0xbe766e79	-0.2406558
56	0x3bc1e62b	0.0059173307
57	0x3ec642f4	0.38722956
58	0x3e562afb	0.20914833
59	0xbdfe3138	-0.124117315
60	0x3e30a438	0.17250144
61	0x3ea07d06	0.31345385
62	0x3e96a184	0.29420102
63	0x3dbee172	0.09320344
64	0xbd9108c2	-0.070817485
65	0x3e937acb	0.2880462
66	0xbd5a0339	-0.05322573
67	0xbd9e5ce3	-0.077325605
68	0xbe5019e4	-0.20322376
69	0xbeabbbb7	-0.33541653
70	0x3e4bbba7	0.19895802
71	0xbce8596a	-0.028362948
72	0xbdf3c7e7	-0.11903363
73	0x3daceec8	0.084439814
74	0xbd8d0fb4	-0.06887761
75	0xbd194a66	-0.037424468
76	0x3dbc4bac	0.09194121
77	0xbd1d0069	-0.03833047
78	0x3de1058b	0.10987385
79	0xbe0b47c1	-0.1360159
80	0x3df463c6	0.11933093
81	0x3dbe76c6	0.09299998
82	0x3eba174d	0.36345902
83	0x3e6743ea	0.22584501
84	0x3e363e24	0.17797142
85	0x3e772ba5	0.24137743
86	0x3eb0c27b	0.34523377
87	0x3e5055ef	0.20345281
88	0x3e9904aa	0.2988637
89	0x3e86a6ce	0.26299137
90	0x3e8eeb92	0.279141
91	0xbd1d08bc	-0.038338408
92	0xbdc87a75	-0.09788982
93	0x3dc885ea	0.09791167
94	0x3d950dc5	0.07278017
95	0xbe261986	-0.16220674
96	0xbeaa0d86	-0.33213443
97	0xbf0de86c	-0.5543277
98	0xbf1a8220	-0.60354805
99	0xbe99a8df	-0.3001165
100	0xbc3a7519	-0.011380457
101	0x3e593285	0.21210678
102	0x3bbf4209	0.0058367294
103	0xbd3693f1	-0.04457468
104	0x3d7dbf07	0.061949756
105	0xbf213215	-0.62967044
106	0xbf253d16	-0.64546335
107	0xbef75a74	-0.48311198
108	0xbec67c4b	-0.38766703
109	0xbe764251	-0.24048735
110	0xbed6b37d	-0.41933814
111	0xbe89478d	-0.268124
112	0xbe3466b6	-0.17617306
113	0xbdc0bab5	-0.094106115
114	0x3dad9f41	0.08477641
115	0x3e26f459	0.16304149
116	0xbd2d9fa8	-0.04238859
117	0x3e295185	0.16535003
118	0x3d5740be	0.052551977
119	0x3dbd8af2	0.09255017
120	0x3ef5825f	0.47951028
121	0x3ec962fe	0.39333338
122	0x3e4ca822	0.19986013
123	0x3e5a30d8	0.21307695
124	0x3e88fcac	0.26755273
125	0x3dd4daff	0.10393333
126	0x3e4316b6	0.19051632
127	0x3e4e742d	0.20161505
128	0xbdeab641	-0.114605434
129	0x3d1a9d58	0.03774771
130	0xbcf97ec3	-0.030455953
131	0x3e2ceee1	0.16888
132	0x3d9521a9	0.07281811
133	0x3d9f78f8	0.07786745
134	0xbd396146	-0.045258783
135	0x3e895761	0.26824477
136	0x3e948dae	0.29014343
137	0x3d98b83b	0.07457014
138	0xbe48dda9	-0.19615807
139	0xbeb3e8f9	-0.35138682
140	0x3db6b12a	0.0892051
141	0x3e6dd6fa	0.23226538
142	0x3d236f72	0.039901204
143	0xbd81b793	-0.06333842
144	0xbe9b8334	-0.30373538
145	0x3ea1e55c	0.316203
146	0x3e08cfef	0.1336057
147	0xbd136f0a	-0.035994567
148	0xbea8bfe7	-0.3295891
149	0xbea30db9	-0.31846407

conv1.bias f4 [6]
0	0xbd2eb916	-0.04265698
1	0x3d4a5151	0.049393956
2	0xbca44963	-0.020054525
3	0xbb99e4a7	-0.004696447
4	0x3e50650a	0.20351043
5	0xbd03599f	-0.03206789

conv2.weight f4 [16, 6, 5, 5]
0	0xbe8d1695	-0.2755629
1	0xbd9534b9	-0.07285447
2	0x3daca979	0.08430762
3	0xbd0da864	-0.034584418
4	0xbd4884a0	-0.048954606
5	0xbe5c71de	-0.21527812
6	0xbd4c4e3d	-0.0498793
7	0x3c8a6e1f	0.016898213
8	0x3d84ddc3	0.0648761
9	0x3b8bf3b9	0.0042709974
10	0xbd9b94e0	-0.07596755
11	0xbd59c9c1	-0.053170923
12	0x3e16eabb	0.1473798
13	0x3ddaa80d	0.106765844
14	0xbd488e52	-0.048963852
15	0xbd52ecde	-0.051495425
16	0x3de0fdb6	0.109858915
17	0x3d9a3eaa	0.075314835
18	0x3d3cdfc3	0.046111833
19	0xbb19cb49	-0.0023467115
20	0xbd880f71	-0.0664357
21	0x3cd68d20	0.02619034
22	0x3e40097d	0.1875362
23	0x3c081147	0.0083049005
24	0xbe051921	-0.12997867
25	0xbb97f943	-0.0046378686
26	0xbb968194	-0.0045930836
27	0xbd45a10a	-0.048249282
28	0x3c351f4a	0.011054823
29	0xbdc69911	-0.09697164
30	0xbe8ef7e4	-0.279235
31	0x3d2f3fb6	0.04278537
32	0xbd0b6012	-0.034027167
33	0xbd2ee95a	-0.04270301
34	0xbd68d46a	-0.0568432
35	0xbd0f934a	-0.035052575
36	0x3d06390d	0.03276925
37	0xbe040337	-0.12891851
38	0xbdc1bfaf	-0.09460389
39	0xbd77ae7c	-0.060469136
40	0xbd5b1d2e	-0.053494625
41	0x3dbdd787	0.09269624
42	0xbe0a50be	-0.13507363
43	0xbd5d8d86	-0.054090045
44	0x3ccaf5db	0.024775436
45	0xbc90db23	-0.017682618
46	0x3dd3d64e	0.1034361
47	0xbd8148e5	-0.06312732
48	0xbc9f917d	-0.019478554
49	0x3d3f0677	0.046637025
50	0xbdf2113e	-0.11819695
51	0xbe48f4cb	-0.19624631
52	0x3ba2f344	0.004972847
53	0x3e2cff5d	0.16894288
54	0xbd0fa2ce	-0.035067372
55	0xbe639f66	-0.22228774
56	0xbdc25809	-0.094894476
57	0x3e1a41ff	0.15064238
58	0x3ca3871a	0.019961882
59	0xbdb1f6af	-0.08689629
60	0xbe97fa1d	-0.2968301
61	0x3d17ec40	0.03709054
62	0x3e3dd6a6	0.18538913
63	0x3d6bb474	0.05754514
64	0xbd6a6778	-0.05722758
65	0xbe35f2a4	-0.17768341
66	0x3d73a72b	0.059485596
67	0x3dccb4da	0.09995432
68	0xbda007e0	-0.07814002
69	0x3cedf971	0.029049607
70	0x3d7239c2	0.059137113
71	0x3e280029	0.16406311
72	0x3d8273b3	0.06369724
73	0xbd295d47	-0.04134872
74	0x3cc3a334	0.023881532
75	0xbd3c4fa3	-0.045974385
76	0xbe8b9024	-0.27258408
77	0xbe2ad113	-0.16681318
78	0x3e21de32	0.15807417
79	0xbb9c80b5	-0.0047760853
80	0xbe99ca9b	-0.30037388
81	0xbedd54ed	-0.43228856
82	0xbd0b9a77	-0.034082856
83	0x3e332d2c	0.174977
84	0xbcad84a1	-0.021181406
85	0xbe5d45d4	-0.21608669
86	0xbe98b18f	-0.29822966
87	0x3de82214	0.11334625
88	0x3e18a7d4	0.14907771
89	0xbe00fbd3	-0.12596063
90	0xbe11d90f	-0.14242958
91	0xbd563674	-0.052298024
92	0x3de046c4	0.109509975
93	0x3e009fa1	0.12560894
94	0x3d8f62fa	0.070013
95	0xbe2579cd	-0.16159745
96	0x3ce7849a	0.028261472
97	0x3e042797	0.12905727
98	0xbceee3fc	-0.029161446
99	0xbdc869c9	-0.09785802
100	0x3b656aa8	0.00350062
101	0x3df3b226	0.118992135
102	0xbcfb86e6	-0.030703973
103	0xbe0e79b3	-0.13913612
104	0xbe12ef76	-0.1434916
105	0x3dcac1cc	0.09900245
106	0x3e144e56	0.14483008
107	0xbe878a6b	-0.26472792
108	0xbe3e6506	-0.18593225
109	0x3c8d8cf0	0.017279118
110	0x3e3deb84	0.18546873
111	0xbd566b58	-0.052348465
112	0xbe97237a	-0.29519254
113	0xbe7246b8	-0.2365979
114	0x3db08570	0.08619201
115	0x3e713780	0.23556328
116	0xbd8ce7a7	-0.06880122
117	0xbef7439a	-0.48293763
118	0xbdae7782	-0.08518888
119	0x3d91489f	0.070939295
120	0x3e9b5b9c	0.3034333
121	0x3d539545	0.051656026
122	0xbeaa4319	-0.33254316
123	0xbdcbfc73	-0.0996026
124	0x3b95347c	0.0045533758
125	0x3d9a6e1b	0.07540532
126	0xbe3a8019	-0.18212928
127	0x3e0a8388	0.13526738
128	0x3e2a659e	0.16640326
129	0xbd83bbce	-0.06432305
130	0xbc7a826e	-0.015289886
131	0xbdb070d6	-0.08615272
132	0x3e8fd8f3	0.28095207
133	0x3dd9495b	0.106096946
134	0xbe2f1b97	-0.17100368
135	0xbe0b80e1	-0.13623382
136	0xbd57a2e3	-0.052645575
137	0x3e9938f8	0.29926276
138	0x3ccffdd6	0.025389593
139	0xbddf17a7	-0.10893183
140	0xbd48427d	-0.048891533
141	0x3d2e6183	0.042573463
142	0x3e92e6ee	0.2869181
143	0x3ddd9009	0.10818488
144	0xbd28888e	-0.041145854
145	0xbc591153	-0.013248759
146	0x3de4b143	0.111666225
147	0x3e555a6a	0.20835271
148	0x3d885647	0.06657081
149	0x3b9311d9	0.0044882116
150	0xbe333b2c	-0.17503041
151	0xbd9547ec	-0.07289109
152	0xbd2d3fc5	-0.042297143
153	0xbda4d699	-0.08048744
154	0x3d8cb4de	0.06870435
155	0xbe3f27fd	-0.18667598
156	0xbe90f8fa	-0.28314954
157	0xbd44a453	-0.048008274
158	0xbbd06d40	-0.00636068
159	0x3dc9a5d3	0.098460816
160	0xbe214042	-0.15747169
161	0xbdf05eec	-0.11736855
162	0x3c929cb5	0.01789699
163	0x3ccdeafe	0.025136467
164	0xbe05d3f3	-0.13069133
165	0xbdfbaaa4	-0.122884065
166	0xbcd98a47	-0.026555194
167	0xbb57a9a4	-0.003290751
168	0xbdc51102	-0.096223846
169	0xbb7f7360	-0.003897868
170	0x3c47e656	0.012200912
171	0xbd54cd92	-0.05195386
172	0x3dc55fa8	0.096373856
173	0x3df3d509	0.119058676
174	0x3c19d0a2	0.009388121
175	0x3d4cbfbb	0.049987536
176	0x3df2715f	0.1183803
177	0x3da0fdf7	0.0786094
178	0x3dbfaee2	0.09359528
179	0x3da84c29	0.082176514
180	0x3c56d9d8	0.013113461
181	0xbc722280	-0.014778733
182	0x3d93ebec	0.07222733
183	0x3cb1e240	0.02171433
184	0xbdcf7ef3	-0.101316355
185	0xbe07b7bd	-0.13253684
186	0xbe14cceb	-0.14531295
187	0xbe901d1f	-0.28147218
188	0xbdefddd7	-0.117122345
189	0xbd38bd5d	-0.045102466
190	0xbe20f72a	-0.15719286
191	0xbe6afad0	-0.2294724
192	0xbdc3fa18	-0.09569186
193	0x3d8a7eac	0.06762442
194	0xbd7aef40	-0.061263323
195	0xbe10ef72	-0.14153841
196	0xbce1ce6e	-0.027564254
197	0xbe0472a5	-0.12934358
198	0xbdd13696	-0.102154896
199	0xbe2fbb9b	-0.1716141
200	0xbe022604	-0.12709814
201	0x3d32f123	0.043686997
202	0xbd88ed59	-0.066858955
203	0xbd55a798	-0.052161783
204	0xbd204bb2	-0.03913469
205	0xbd9220b7	-0.07135146
206	0xbcc5ac94	-0.024130143
207	0xbe213042	-0.15741065
208	0xbd9c532e	-0.07633053
209	0xbb12bd61	-0.002239071
210	0xbc1f88d4	-0.009737212
211	0xbeab1529	-0.3341458
212	0xbe312886	-0.17300615
213	0x3e43c8b5	0.19119532
214	0x3e971427	0.29507563
215	0xbdae33e3	-0.0850599
216	0xbdbff57c	-0.09372994
217	0x3e28f6f8	0.16500461
218	0x3e9ce253	0.30641422
219	0x3d947c70	0.07250297
220	0xbe1d4c2b	-0.15361087
221	0x3ddad8ec	0.10685906
222	0x3e2233e9	0.15840115
223	0x3daaf038	0.08346599
224	0xbd2213bc	-0.0395696
225	0x3ca3c6e8	0.019992307
226	0x3e29afce	0.1657097
227	0x3d4bdb19	0.049769495
228	0x3da3cba2	0.07997824
229	0xbd2bd882	-0.041954525
230	0xbcc7d15e	-0.024391826
231	0x3d94d59f	0.072673075
232	0xbe0f20d5	-0.13977368
233	0xbe954e60	-0.29161358
234	0xbc98c5ed	-0.018649066
235	0x3cf01d39	0.02931081
236	0xbeadf275	-0.33974043
237	0xbe23509b	-0.15948717
238	0x3d8564fc	0.06513402
239	0x3e83feae	0.25780243
240	0xbe0dd794	-0.13851768
241	0xbe71a6d6	-0.23598799
242	0xbdcf7376	-0.10129444
243	0x3ddfd1b4	0.109286696
244	0x3c31f296	0.01086106
245	0xbe26b360	-0.16279364
246	0xbe43e5a0	-0.19130564
247	0xbd0ec4c0	-0.034855604
248	0x3e01629d	0.12635274
249	0xbde9592f	-0.113939635
250	0x3d42b230	0.047533214
251	0xbe1761d2	-0.14783409
252	0xbe11ff61	-0.14257576
253	0xbe825708	-0.25457025
254	0xbe6095d1	-0.2193215
255	0x3e2f41f8	0.17115009

conv2.bias f4 [16]
0	0xbd65e531	-0.056126777
1	0x3d1ec50c	0.038762137
2	0xbd1b2c57	-0.037884083
3	0xbd312590	-0.043248713
4	0xbcbb9331	-0.022897335
5	0xbde24367	-0.11048012
6	0xbe0a8bc4	-0.13529879
7	0x3cd01db8	0.025404796
8	0x3ae378e2	0.0017354751
9	0xbd02aeb0	-0.031904876
10	0x3b639aa4	0.0034729624
11	0xbdc3aeb8	-0.09554809
12	0xbcf06bde	-0.02934831
13	0xbd5a1bd0	-0.05324918
14	0x3dcf67dc	0.101272315
15	0xbe68a950	-0.22720838

fc1.weight f4 [120, 256]
0	0x3d9439c1	0.07237578
1	0x3da32609	0.07966239
2	0xbd876134	-0.06610337
3	0xbe237028	-0.15960753
4	0xbc2d7eca	-0.010589311
5	0x3c9d2644	0.019183286
6	0xbc6e8097	-0.014557025
7	0xbd9efd3f	-0.077631466
8	0xbda96d6d	-0.082728244
9	0x3b6dffd0	0.0036315806
10	0xbd39d341	-0.045367483
11	0x3d9db061	0.07699657
12	0x3c250fbd	0.010074553
13	0x3bea5596	0.007151316
14	0x3d731a65	0.059351344
15	0xbcad699c	-0.021168523
16	0xbd866834	-0.06562844
17	0x3d4ba1c1	0.049714807
18	0xbcb17586	-0.021662485
19	0xbe0355e5	-0.12825735
20	0xbd6c5f04	-0.0577078
21	0xbe1689d5	-0.14701016
22	0xbde24afa	-0.11049457
23	0xbde95e00	-0.11394882
24	0x3d48d6e7	0.04903307
25	0xbd5337c0	-0.05156684
26	0x3d9804c7	0.07422786
27	0x3e0185b6	0.12648663
28	0x3cf79598	0.030222699
29	0x3c07df40	0.008292973
30	0x3d526d43	0.05137373
31	0x3c994f23	0.018714493
32	0x3ca51e48	0.02015604
33	0x3c6fb5c6	0.0146307405
34	0x3d2a0f83	0.0415187
35	0x3cd03dcf	0.025420098
36	0x3db48be0	0.088157415
37	0x3da8f1d0	0.08249247
38	0x3d613404	0.054981247
39	0xbdc24777	-0.09486287
40	0x3dc2185b	0.09477302
41	0x3d3ad8f0	0.045617044
42	0x3c85c946	0.016331326
43	0xbd9808a9	-0.07423527
44	0xbd5a9d43	-0.053372633
45	0xbd7ae743	-0.061255705
46	0x3cef2421	0.029192032
47	0x3e26b401	0.16279604
48	0xbb37d568	-0.0028050784
49	0x3d80a70a	0.0628186
50	0x3cddd71f	0.027080117
51	0x3e0d7145	0.1381274
52	0x3d1823cf	0.037143525
53	0xbc645b7c	-0.013937827
54	0x3cbde6e9	0.023181396
55	0xbdba74c1	-0.091043
56	0x3d6eafab	0.058273
57	0xbbda634f	-0.0066646705
58	0xbe1f6348	-0.15565217
59	0xbb779d86	-0.00377831
60	0xbc27178b	-0.010198484
61	0x3cb083c2	0.021547202
62	0x3d4f0ecd	0.050551224
63	0x3db8348b	0.08994397
64	0x3d3e1aae	0.046412162
65	0xbe120f00	-0.14263535
66	0x3c93bea8	0.018035248
67	0xbd0c5899	-0.03426418
68	0x3da6fc05	0.08153538
69	0xbd0c37c6	-0.034232877
70	0x3d0a70d6	0.033799015
71	0x3d0cf315	0.03441151
72	0x3d358264	0.044313803
73	0xbd899ba3	-0.067191385
74	0xbd8651be	-0.0655856
75	0xbd18a136	-0.037263118
76	0x3d6c1784	0.057639614
77	0xbd2976cf	-0.04137307
78	0xbe0144bc	-0.12623876
79	0xbc37c0d4	-0.011215407
80	0x3c513e0a	0.012771139
81	0xbd2053bf	-0.039142366
82	0xbbbd90f8	-0.005785104
83	0x3d1c5498	0.038166612
84	0x3cd8b32e	0.026452627
85	0xba5f08c2	-0.000850808
86	0xbd9457b6	-0.07243292
87	0x3c21b273	0.009869206
88	0x3cb4fe7f	0.02209401
89	0xbd469102	-0.048478134
90	0x3d28d729	0.041220818
91	0xbd0b9259	-0.034075115
92	0xbd4d63f1	-0.05014414
93	0xbd15adbb	-0.036542635
94	0x3d70462d	0.058660675
95	0xbd25e6d9	-0.040503357
96	0xbccf6ef8	-0.025321469
97	0xbd0b446d	-0.034000803
98	0x3ccc6736	0.024951559
99	0xbd3faaf2	-0.046793886
100	0x3d6aa547	0.057286527
101	0xbd9bd404	-0.07608798
102	0xbe0b3cd6	-0.13597426
103	0xbdd4c5fc	-0.10389325
104	0x3d75d942	0.060021646
105	0xbc47587a	-0.012167091
106	0x3c740206	0.014893061
107	0x3d80072a	0.062513664
108	0x3daa78a1	0.083237894
109	0x3db90f1d	0.09036086
110	0x3d57b872	0.052666135
111	0x3d700bc2	0.058604963
112	0x3c0c6809	0.008569726
113	0x3d1749da	0.036935665
114	0x3da721e3	0.0816076
115	0x3d48d54f	0.049031552
116	0x3d848bcd	0.064719774
117	0x3d4cc0d0	0.049988568
118	0x3d328138	0.043580264
119	0x3e212476	0.15736565
120	0xbdae51b4	-0.085116774
121	0xbd27ca4f	-0.04096442
122	0xbd87e6e5	-0.066358365
123	0x3e1e3109	0.15448393
124	0xbc89c896	-0.01681928
125	0x3d0ad16e	0.033891134
126	0x3c0582c6	0.008148855
127	0x3d637ab6	0.05553695
128	0xbad9c6bb	-0.0016615012
129	0xbc1eaa6f	-0.009684189
130	0xbdc40f28	-0.09573203
131	0xbdaa032c	-0.08301386
132	0x3c8f4a52	0.017491493
133	0xbc3ac28f	-0.011398925
134	0xbdf2dd9c	-0.11858675
135	0xbe029074	-0.12750417
136	0x3d50d84a	0.05098752
137	0xbcc4c607	-0.024020208
138	0xbd788346	-0.060672067
139	0xbccd7c0c	-0.025083564
140	0x3d918ade	0.07106565
141	0x3cefd2e3	0.029275363
142	0x3ca84a8f	0.020543365
143	0xbde4be74	-0.111691386
144	0xbc0c73ec	-0.00857256
145	0x3cef173f	0.02918589
146	0xbd99a93d	-0.07502983
147	0xbda3a845	-0.07991079
148	0xbe29ba4a	-0.1657497
149	0xbd3a77f2	-0.045524545
150	0xbd8e8e09	-0.06960685
151	0xbe1b3c47	-0.15159713
152	0x3d710dca	0.05885104
153	0x3cd3dd2f	0.025862304
154	0xbdaf7b26	-0.085684106
155	0xbd1944ca	-0.037419118
156	0x3e0380fc	0.12842172
157	0x3d0dfa96	0.034662805
158	0x3d9d85bf	0.07691526
159	0x3dd2397f	0.10264873
160	0x3d3555b0	0.04427117
161	0x3ad6b48d	0.0016380713
162	0xbc4251b0	-0.011860296
163	0xbdda125f	-0.10648035
164	0x3d898a75	0.06715862
165	0xbd74e763	-0.05979098
166	0xbd925b59	-0.071463294
167	0xbca217c1	-0.019786717
168	0xbc2f5c64	-0.01070318
169	0x3d29d269	0.04146043
170	0x3d0b7376	0.03404566
171	0xbcb7b588	-0.022425428
172	0x3d5a7f0b	0.053343814
173	0x3c3b6a3f	0.011438905
174	0x3d3e4e4b	0.046461385
175	0xbd37191d	-0.044701684
176	0xbc532b52	-0.012888746
177	0x3d5704ed	0.052494932
178	0x3d0034ce	0.03130036
179	0x3d5c4298	0.053774446
180	0xbc140bdb	-0.00903603
181	0x3a66a27b	0.0008798015
182	0xbd89566f	-0.06705939
183	0xbdb6d923	-0.08928134
184	0x3cd647da	0.026157308
185	0x3a892290	0.0010462571
186	0xbd3e31fe	-0.046434395
187	0x3d76d916	0.060265623
188	0xbcc9e7eb	-0.02464672
189	0x3d6a7483	0.05724002
190	0xbd591fc0	-0.053008795
191	0xbd941814	-0.07231155
192	0x3da3a4cf	0.07990419
193	0x3d8e99b1	0.06962908
194	0x3ddc7d58	0.10766095
195	0x3d102886	0.035194896
196	0xbcc6d7b2	-0.024272773
197	0xbde0f867	-0.10984879
198	0xbb7b9689	-0.0038389286
199	0x3d91f376	0.071265146
200	0xbe2144e0	-0.1574893
201	0xbd228af8	-0.039683312
202	0x3d9b316c	0.07577786
203	0xbd10c4ca	-0.035343923
204	0x3b905f4e	0.0044058925
205	0x3d676124	0.056489125
206	0xbce608e7	-0.028080417
207	0xbd91e466	-0.07123642
208	0x3d983a44	0.07432988
209	0x3e1f2c35	0.15544207
210	0xbdbb3f47	-0.091429286
211	0x3dc0a642	0.09406711
212	0x3d662be8	0.056194216
213	0x3daffcff	0.08593177
214	0xbc3336f4	-0.010938395
215	0x3d5dd5ac	0.05415885
216	0xbcf4ea05	-0.029896745
217	0xbd4fd638	-0.050741404
218	0xbe0cf2f7	-0.13764559
219	0x3c6cc938	0.014452271
220	0x3dbaf944	0.09129575
221	0x3da5fcaa	0.081048325
222	0xbd378687	-0.04480603
223	0xbd895e09	-0.06707389
224	0x3dbdbd2e	0.09264599
225	0x3e3072f2	0.17231348
226	0x3bc5bcaf	0.0060344557
227	0x3d92ed93	0.0717422
228	0xbb014d0e	-0.0019729766
229	0x3da30d40	0.079615116
230	0x3b4a6a5d	0.0030886151
231	0x3d1b765c	0.037954673
232	0x3da03983	0.078234695
233	0xbd2cab67	-0.04215565
234	0xbe0d8b4c	-0.13822669
235	0xbcbf3e5d	-0.023345167
236	0x3cdfb2fe	0.02730703
237	0x3bd84394	0.006599853
238	0xbb46f4f6	-0.003035841
239	0x3d9efbcf	0.077628724
240	0x3ceb1674	0.02869723
241	0x3d027f73	0.031859826
242	0x3d23f683	0.040030014
243	0xbda46c96	-0.080285236
244	0x3d54d266	0.051958464
245	0x3d806f97	0.06271284
246	0x3cea511e	0.028603133
247	0xbe1c1a3c	-0.15244383
248	0x3d2135fa	0.039358117
249	0xba901d9d	-0.0010995154
250	0x3d3a1fd2	0.045440502
251	0x3d055916	0.032555662
252	0xbcadf763	-0.021236127
253	0x3dab11d5	0.083530106
254	0x3dfa7173	0.1222867
255	0x3afdd2d5	0.0019365201

fc1.bias f4 [120]
0	0xbcb4e089	-0.022079723
1	0xbb8ec188	-0.004356567
2	0x3cfbb654	0.03072659
3	0x3d53c8ab	0.051705044
4	0xbc3bc78b	-0.011461149
5	0x3d1da4f7	0.0384874
6	0x3db6276f	0.0889424
7	0x3d5456dd	0.05184065
8	0xbcee49df	-0.029087959
9	0xbd6f98b9	-0.058495257
10	0x3d846edf	0.064664595
11	0x3c8ec72a	0.017428953
12	0x3d86d18a	0.06582935
13	0xbd30af19	-0.043135736
14	0xbc17758c	-0.009244334
15	0x3c95c20d	0.018281007
16	0x3d1e7001	0.038681034
17	0x3b3b37ea	0.0028567263
18	0xbd84b6a7	-0.06480151
19	0xbd5c6774	-0.053809598
20	0x3c880218	0.01660256
21	0xbceece6e	-0.029151168
22	0xbd351cdc	-0.044216976
23	0x3c6cecfa	0.0144607965
24	0x3d2deab0	0.042460144
25	0x3d315d65	0.04330196
26	0x3d37a874	0.044838384
27	0xbd680fd3	-0.056655716
28	0x3cbac41d	0.022798592
29	0x3cd9000f	0.026489286
30	0xbd136ffe	-0.035995476
31	0xbcfb69ee	-0.03069016
32	0x3d4b84be	0.04968714
33	0xbd06f863	-0.032951724
34	0xbd2e373e	-0.04253315
35	0xbd323b74	-0.04351373
36	0x3cddc301	0.027070524
37	0xbcbb0826	-0.022831034
38	0x3d881212	0.06644072
39	0xbd55a617	-0.05216035
40	0x3c01b31e	0.00791624
41	0xbd48091d	-0.048836816
42	0x3d574a6d	0.052561212
43	0x3e1bd31d	0.15217252
44	0x3da8c72a	0.082411125
45	0x3c4fc3e4	0.012680981
46	0xbd16a563	-0.03677882
47	0x3cab43c6	0.02090634
48	0xbd7dd15d	-0.061967243
49	0xbcddc6bd	-0.027072305
50	0xbd668929	-0.05628315
51	0x3c4fb101	0.012676478
52	0xbd414a09	-0.047189746
53	0xbd8f3ee9	-0.06994421
54	0x3d14b58a	0.03630594
55	0x3d1c4b58	0.03815779
56	0x3d49ddd7	0.04928383
57	0x3d3e927b	0.046526413
58	0x3d8f2984	0.0699034
59	0x3ccdbc15	0.025114099
60	0x3bc2484d	0.005929029
61	0xbdd6da86	-0.10490899
62	0x3d3c63e3	0.045993697
63	0x3c8f6f1a	0.017509032
64	0x3c661a5d	0.014044371
65	0xbc888d71	-0.016669007
66	0xbce1a435	-0.02754412
67	0xbc256db5	-0.010096957
68	0x3cb2433a	0.021760572
69	0xbd85f046	-0.06539969
70	0x3d1b7d20	0.037961125
71	0xbcf4c02d	-0.029876793
72	0xba42172c	-0.00074039656
73	0x3d4d40f3	0.05011077
74	0xbc4177f0	-0.0118083805
75	0xbd76748d	-0.060169745
76	0xbcb95850	-0.022625118
77	0xbb8ab43b	-0.004232911
78	0xbd686208	-0.056734115
79	0x3d6b56b0	0.05745572
80	0xbcbe2045	-0.023208747
81	0x3cd51c41	0.02601445
82	0xbc41d9c2	-0.011831703
83	0x3c635bad	0.013876838
84	0x3db3c296	0.08777349
85	0xbd644586	-0.055730365
86	0xbd94dd3c	-0.072687596
87	0x3da0c99a	0.078509524
88	0xbdae8d88	-0.08523089
89	0x3ce034c2	0.027368907
90	0xbc06b97c	-0.008222934
91	0x3d4bcc33	0.049755286
92	0x3dd7b9f7	0.10533517
93	0x3d8cba4f	0.06871473
94	0xbd2f9c84	-0.042873874
95	0xbd9cf071	-0.07663048
96	0xbcf5c9c7	-0.030003441
97	0xbd3f112a	-0.04664723
98	0x3d053d20	0.032528996
99	0x3d31684b	0.043312352
100	0xbd4fe63a	-0.05075667
101	0x3a5fa0f2	0.00085307576
102	0xbd90043b	-0.07032057
103	0x3bac3ad2	0.0052560354
104	0xbdc27c1a	-0.09496327
105	0x3dbbc469	0.09168322
106	0xbd130c05	-0.035900135
107	0xbd93b978	-0.0721311
108	0x3dd4d175	0.10391513
109	0x3d41b687	0.047293212
110	0xbd7e76dc	-0.062125072
111	0xbda40798	-0.08009261
112	0x3c3fcd18	0.011706613
113	0xbd92ee22	-0.071743265
114	0x3d1d1cfd	0.038357724
115	0x3bb4db46	0.0055193035
116	0x3c780446	0.015137738
117	0xbd6283cf	-0.055301484
118	0x3d341a76	0.043970548
119	0xbd45f7c6	-0.048332

fc2.weight f4 [84, 120]
0	0xbd98c24c	-0.07458934
1	0xbdd1260c	-0.10212335
2	0x3cddb741	0.027064921
3	0xbd30fa67	-0.043207552
4	0xbc84d743	-0.016215926
5	0xbab2043f	-0.0013581588
6	0xbc23a575	-0.0099881785
7	0x3d891b7f	0.066946976
8	0xbd3c6f0b	-0.046004336
9	0x3d16e63e	0.03684067
10	0xbd93fe26	-0.07226209
11	0x3e5d9b49	0.21641268
12	0x3da93578	0.082621515
13	0x3d206e2c	0.039167568
14	0xbcbfc06c	-0.023407184
15	0x3ca96b99	0.02068119
16	0x3d41a6dc	0.04727827
17	0x3dc8ed88	0.098109305
18	0x3da9b5ae	0.08286606
19	0x3d31d4f2	0.04341597
20	0xbda37adb	-0.07982417
21	0x3dc54819	0.09632892
22	0xbd8661d8	-0.06561631
23	0xbd0c6a9c	-0.034281358
24	0xbe3d24d6	-0.18471083
25	0x3ad1f4bd	0.0016018372
26	0xbd60e5c3	-0.054906618
27	0xbca68b00	-0.020329952
28	0x3cfab35a	0.0306031
29	0xbd1f7ac7	-0.03893545
30	0xbdf45246	-0.11929755
31	0xbddf6a9b	-0.10909005
32	0xbdaed135	-0.08535997
33	0xbc3ad268	-0.011402704
34	0xbe508dec	-0.20366639
35	0x3da5b316	0.080907986
36	0x3d20a578	0.039220303
37	0x3d7e8df8	0.06214711
38	0xbd8b9119	-0.068147846
39	0x3d6dcc34	0.05805607
40	0xbdc65a56	-0.09685199
41	0xbafa3a7d	-0.0019090917
42	0xbd207951	-0.039178196
43	0xbce444a1	-0.027864756
44	0x3c7714df	0.01508066
45	0x3bad8a70	0.005296044
46	0xbd7d869c	-0.06189595
47	0xbe46710b	-0.1937906
48	0xbd9eb4d0	-0.07749331
49	0xbdb23a91	-0.08702577
50	0xbcc94b43	-0.02457202
51	0x3bab5cef	0.0052295844
52	0xbd6fab54	-0.058513
53	0x3d14ff30	0.03637618
54	0x3d0a7ee5	0.033812422
55	0x3ca2227f	0.01979184
56	0x3d0a8726	0.033820294
57	0x3ddcf2d7	0.107885055
58	0xbdc5e7ce	-0.09663354
59	0xbc4c9419	-0.012486481
60	0x3daec3ff	0.08533477
61	0xbe2162bf	-0.15760325
62	0xbd767eb5	-0.06017943
63	0xbd8f100a	-0.06985481
64	0x3c675398	0.014119051
65	0xbde6236d	-0.11237226
66	0x3e07419c	0.13208622
67	0x3dd6afed	0.10482774
68	0xbdeeb120	-0.11654878
69	0x3cee7670	0.02910921
70	0x3d98f406	0.07468419
71	0xbc53e2c8	-0.012932487
72	0xbbe8d970	-0.0071059987
73	0x3d647b0c	0.05578141
74	0x3c60794b	0.0137007935
75	0xbe4df546	-0.20113096
76	0x3dd63288	0.10458857
77	0x3dfe3049	0.124115534
78	0xbd7de3c2	-0.061984785
79	0xbc21beef	-0.009872182
80	0xbd8cdff0	-0.0687865
81	0xbe308288	-0.17237294
82	0xbe2592bd	-0.16169257
83	0xbcf3ee9d	-0.029776866
84	0xbde9cd96	-0.114161655
85	0xbdd62645	-0.10456518
86	0xbdca734b	-0.09885272
87	0xbbfb38c3	-0.0076666786
88	0x3d1547a3	0.03644527
89	0xbd2afaba	-0.041743018
90	0x3cac66c0	0.021045089
91	0x3cc37373	0.023858761
92	0x3de92dc8	0.11385685
93	0x3ec4a354	0.3840586
94	0xbc2814e8	-0.010258891
95	0x3db2b06f	0.08725058
96	0x3b2037a0	0.0024447218
97	0xbd8a8109	-0.06762893
98	0xbdb601a5	-0.088870324
99	0x3d8c79cc	0.068591684
100	0xbc2b7780	-0.010465503
101	0xbd71f89a	-0.059074976
102	0x3d2c66f8	0.042090386
103	0x3dba301c	0.090912074
104	0x3c8ae7fb	0.01695632
105	0xbdfb04ff	-0.12256812
106	0xbc60dbe8	-0.013724305
107	0x3ba9afe0	0.0051784366
108	0xbdc8d0a6	-0.098054215
109	0xbbcc30ec	-0.006231418
110	0x3d9f87b8	0.07789558
111	0x3d289e65	0.04116668
112	0xbd7e26ca	-0.06204871
113	0xbc12c570	-0.008958206
114	0xbc9cfcf8	-0.019163594
115	0x3d73c65c	0.059515342
116	0x3e06be29	0.13158478
117	0x3d97dbf4	0.074149996
118	0xbdd461f9	-0.10370249
119	0xbce10598	-0.027468488
120	0x3da6330b	0.081152044
121	0x3d81af7f	0.06332301
122	0xbda64946	-0.081194445
123	0x3e345614	0.17610961
124	0x3d9bec91	0.07613481
125	0xbdd58e6e	-0.10427557
126	0x3c8177d4	0.015804209
127	0xbd22a67f	-0.039709564
128	0xbcf11e51	-0.029433401
129	0x3dcd13ba	0.10013528
130	0xbda6db3e	-0.08147286
131	0x3c550be0	0.0130033195
132	0x3e31e68a	0.173731
133	0x3d73d229	0.059526596
134	0x3ccc28e0	0.024921834
135	0xbdf6e72f	-0.120558135
136	0xbde7ea32	-0.11323966
137	0x3dc74ce4	0.097314626
138	0xbc939d1b	-0.01801925
139	0xbcecf794	-0.028926648
140	0xbd48b208	-0.04899791
141	0xbd3cb259	-0.046068523
142	0x3c158a56	0.00912722
143	0x3c403449	0.011731216
144	0x3ddcfabd	0.10790012
145	0x3d964e9c	0.07339212
146	0xbd870a15	-0.0659372
147	0xbb793fb7	-0.0038032362
148	0xbd26b03b	-0.04069541
149	0xbd99070e	-0.07472049
150	0x3da7db7b	0.081961595
151	0x3dbfba48	0.09361702
152	0x3bf0be54	0.0073469076
153	0xbda51ee7	-0.08062535
154	0x3dcc5249	0.09976632
155	0x3d97548b	0.07389172
156	0xbddde449	-0.108345576
157	0x3d8cb430	0.068703055
158	0xbc676c1d	-0.014124897
159	0xbd8b2058	-0.067932785
160	0x3d8916e9	0.06693823
161	0x3d725f4d	0.059172917
162	0x3e008d89	0.12553991
163	0xbe09a34a	-0.13441196
164	0x3df015a9	0.11722881
165	0xbd9f6475	-0.077828325
166	0x3d682f1c	0.056685552
167	0xbd6b6a40	-0.057474375
168	0x3c372784	0.011178855
169	0xbd9afb07	-0.07567411
170	0xbb6a3e9b	-0.0035742882
171	0xbda07e64	-0.07836607
172	0x3d5db809	0.054130588
173	0x3cf369cb	0.029713532
174	0xbd42ea2e	-0.047586612
175	0xbd137ca8	-0.036007553
176	0xbd40e96c	-0.04709761
177	0x3c3e149d	0.011601594
178	0xbe824434	-0.2544266
179	0x3dd82d7d	0.10555551
180	0x3d9961cf	0.07489359
181	0x3e30b752	0.17257431
182	0x3d49bae8	0.049250513
183	0x3d92287a	0.071366265
184	0xbd3d1ab7	-0.046168055
185	0x3d3befa8	0.04588285
186	0xbd4e337c	-0.050342068
187	0xbd6515f9	-0.055929158
188	0x3e0810d5	0.13287671
189	0x3aa376a0	0.0012471266
190	0xbd3593cc	-0.044330403
191	0xbc95f492	-0.018305097
192	0x3d9ec6af	0.0775274
193	0xbce5d64b	-0.028056284
194	0xbdaf4608	-0.08558279
195	0xbcbbfb71	-0.022947045
196	0xbd8145ee	-0.06312166
197	0xbd4c5efc	-0.04989527
198	0x3cae45bb	0.021273484
199	0x3ca35ca4	0.019941635
200	0xbca24c53	-0.019811785
201	0xbd92730d	-0.071508504
202	0xbadcd20c	-0.0016847267
203	0xbd95999e	-0.07304691
204	0xbe4c794b	-0.19968145
205	0x3d9dde16	0.07708375
206	0x3e408843	0.1880198
207	0xbdf09b6a	-0.11748393
208	0x3e09ed37	0.13469397
209	0x3c41fe83	0.0118404655
210	0xbcbd156b	-0.023081502
211	0x3deb867f	0.115002625
212	0x3dad4f78	0.08462423
213	0x3d4c377e	0.04985761
214	0xbc1fd96a	-0.009756425
215	0xbdb29130	-0.087190986
216	0xbd72475f	-0.059150096
217	0x3dace0dc	0.08441326
218	0xbd8bf7ea	-0.06834395
219	0xbd0751c1	-0.03303695
220	0xbcac5d7c	-0.02104067
221	0xbd91052e	-0.07081066
222	0xbd620f0e	-0.05519014
223	0x3cfebdda	0.031096388
224	0xbda302e6	-0.07959537
225	0xbc741994	-0.014898676
226	0x3d71875e	0.058966987
227	0x3a9bed9a	0.0011896372
228	0xbccc4548	-0.02493538
229	0xbe1a199f	-0.15048836
230	0xbd984337	-0.07434695
231	0x3d1b4c0f	0.037914332
232	0xbc6ba2a2	-0.014382036
233	0x3db679ec	0.089099735
234	0xbd5fface	-0.054682545
235	0x3d99805e	0.07495187
236	0xbccdfcfd	-0.025145048
237	0x3d11261c	0.035436735
238	0xbdb35254	-0.08755937
239	0xbc5d8988	-0.01352156
240	0xbc816af5	-0.015798071
241	0x3d05ed91	0.032697264
242	0x3d361d9b	0.044461828
243	0xbd600b7f	-0.054698464
244	0xbd1759d7	-0.036950912
245	0x3d59bca6	0.053158425
246	0x3d374c55	0.04475053
247	0xbc57e36a	-0.013176778
248	0xbce92018	-0.028457686
249	0xbd977505	-0.073953666
250	0xbdc7d5b9	-0.09757561
251	0x3bfb5212	0.0076696957
252	0xbc6692b0	-0.014073059
253	0x3d8d9d68	0.069147885
254	0xbdf2612a	-0.11834939
255	0xbc941121	-0.018074574

fc2.bias f4 [84]
0	0xbded4c1b	-0.115867816
1	0x3d97288c	0.073807806
2	0xbcc9de2a	-0.024642069
3	0xbe0a750a	-0.1352121
4	0xbddf200b	-0.108947836
5	0x3d7778b1	0.060417835
6	0x3bca367c	0.006171046
7	0x3e11e572	0.14247683
8	0x3d369cba	0.04458306
9	0xbdf7c18d	-0.12097464
10	0x3de6f932	0.11277999
11	0x3caaa432	0.020830248
12	0x3dda7f83	0.10668852
13	0x3da1d8c8	0.07902676
14	0xbd023602	-0.031789787
15	0x3de675c3	0.1125293
16	0xbdc1fb8b	-0.09471806
17	0xbd46220e	-0.04837232
18	0xbdf35e65	-0.11883239
19	0x3d757979	0.0599303
20	0x3d32e196	0.043672167
21	0x3d9e9491	0.077431805
22	0xbd4c4938	-0.049874514
23	0xbd622053	-0.055206608
24	0x3d117de5	0.035520453
25	0x3df6e2fe	0.12055014
26	0x3dd07df9	0.101802774
27	0xbd2cdc06	-0.04220202
28	0xbdb373c0	-0.08762312
29	0xbdbde7b0	-0.092727065
30	0x3c860297	0.016358657
31	0x3ce83214	0.028344192
32	0xbdd048d2	-0.10170139
33	0xbd978f06	-0.074003264
34	0xbd74e766	-0.05979099
35	0xbda4fe1c	-0.0805628
36	0xbbffab22	-0.007802383
37	0x3c7f549c	0.015584137
38	0x3e0e2c67	0.13884126
39	0x3dd2f5cd	0.10300789
40	0x3cef9977	0.029247982
41	0x3d0a0c8b	0.03370337
42	0x3db69417	0.08914965
43	0xbde06096	-0.10955922
44	0xba14c46a	-0.000567502
45	0x3d94b6c3	0.072614215
46	0xbd90738f	-0.07053291
47	0x3cdf933c	0.027291887
48	0x3d8cc0e3	0.06872728
49	0x3ced04be	0.028932925
50	0x3e1dba46	0.15403089
51	0xbcfdd564	-0.030985542
52	0xbb70732a	-0.0036689737
53	0x3d394aab	0.045237225
54	0x3ae2f699	0.0017315923
55	0x3d315f99	0.04330406
56	0x3c35f0b4	0.011104751
57	0xbc8200e5	-0.015869567
58	0x3cc32555	0.023821512
59	0xbd9777f7	-0.07395928
60	0x3c9e6a2f	0.019337742
61	0x3e0b9f26	0.13634929
62	0x3d4d05c9	0.050054345
63	0xbdd2827a	-0.10278793
64	0xbce32c9a	-0.027731229
65	0x3cd42e29	0.025900917
66	0x3d6e6112	0.058198042
67	0x3d0b22e3	0.033968817
68	0xbd5d54f4	-0.054036096
69	0xbc02de28	-0.0079875365
70	0xbd803f71	-0.062621005
71	0x3c3d5a1e	0.01155713
72	0x3d4c048d	0.049809027
73	0x3c887a62	0.01665992
74	0x3cd7dbee	0.026349988
75	0xbd62a495	-0.05533274
76	0xbda14b1b	-0.07875653
77	0xbd53f1eb	-0.051744383
78	0xbaeec4fa	-0.0018216663
79	0xbd0a0204	-0.03369333
80	0xbd1d0df3	-0.03834338
81	0xbd04d014	-0.032425
82	0xbd63add2	-0.05558569
83	0xbd55bf11	-0.05218417

fc3.weight f4 [10, 84]
0	0xbe1d8d38	-0.15385902
1	0x3ddaad1b	0.106775485
2	0xbbcdd5c2	-0.0062815854
3	0xbc94f54d	-0.018183375
4	0xbd4a8939	-0.049447272
5	0xbda12599	-0.07868499
6	0xbdcd3d47	-0.10021453
7	0xbe6afd3e	-0.22948167
8	0x3e1124ac	0.14174145
9	0xbd31177d	-0.04323529
10	0xbd1f903d	-0.038955916
11	0xbe569cda	-0.20958272
12	0x3e356410	0.17713952
13	0x3d2f47cb	0.042793076
14	0xbe34b52a	-0.17647234
15	0x3ba3b138	0.0049954914
16	0x3da64573	0.08118715
17	0xbd1519b4	-0.036401466
18	0xbc69bb0b	-0.014265786
19	0xbde65596	-0.11246793
20	0xbe4c2ee7	-0.19939767
21	0xbe07e913	-0.13272505
22	0xbe2893a7	-0.16462575
23	0x3d4e838d	0.050418425
24	0xbd0f16e0	-0.034933925
25	0x3e274216	0.16333804
26	0xbdb49616	-0.08817689
27	0xbddd677f	-0.10810756
28	0xbd3c2dcd	-0.045942117
29	0x3d1f8d47	0.038953092
30	0xbe227534	-0.15865022
31	0x3dbe94a0	0.09305692
32	0xbd1c0b6a	-0.038096823
33	0x3e0ac6dd	0.13552423
34	0x3cd5b66e	0.026087966
35	0xbdc43cfe	-0.09581946
36	0xbcf874bc	-0.0303291
37	0x3de91871	0.11381615
38	0xbda4ae97	-0.08041113
39	0x3ce66687	0.02812506
40	0xbccb9f14	-0.024856128
41	0xbe1b9fa5	-0.15197618
42	0xbe69667f	-0.22793005
43	0xbd852a6b	-0.06502231
44	0x3d0de504	0.034642234
45	0x3c9928f2	0.018696282
46	0x3daa0887	0.08302408
47	0xbddb85de	-0.107188925
48	0xbd59ea24	-0.05320181
49	0x3dd03303	0.1016598
50	0xbde27db0	-0.11059129
51	0xbc770a1d	-0.015078095
52	0x3d50dd1a	0.05099211
53	0x3e1a528a	0.15070549
54	0xbdb3f6ad	-0.08787284
55	0xbde3d31e	-0.11124252
56	0xbe312c63	-0.17302088
57	0xbd86857b	-0.06568428
58	0x3de323a9	0.11090786
59	0xbe3dba3d	-0.18528076
60	0x3e589348	0.21149933
61	0xbb9564a1	-0.004559115
62	0x3e225429	0.15852417
63	0xbe57189a	-0.21005479
64	0xbde59093	-0.11209216
65	0xbaa716d3	-0.0012747891
66	0xbdcacfb9	-0.09902901
67	0xbdca68d3	-0.09883275
68	0x3d2c37b4	0.04204531
69	0x3d969247	0.07352119
70	0x3ca13ae0	0.019681394
71	0xbe109c19	-0.14122047
72	0xbe10b9a3	-0.14133315
73	0xbda86b65	-0.08223609
74	0xbe0e63e1	-0.13905288
75	0x3d4bafe4	0.04972829
76	0xbd11391c	-0.035454854
77	0x3d500090	0.050781786
78	0xbe1b3bb0	-0.15159488
79	0xbd832454	-0.064034134
80	0xbd71770f	-0.058951434
81	0xbdae6d2c	-0.08516917
82	0x3dd27abd	0.10277317
83	0xbc9aab66	-0.018880557
84	0xbe068907	-0.1313821
85	0xbdb9cd67	-0.090723805
86	0x3d70668e	0.058691554
87	0x3d0da088	0.034576923
88	0x3d1b6abe	0.037943594
89	0x3e19730e	0.14985296
90	0xbdfe2f90	-0.124114156
91	0x3db2222d	0.08697925
92	0xbdc75dfa	-0.097347215
93	0xbc14b003	-0.009075168
94	0x3d8592c4	0.06522134
95	0xbdb08941	-0.08619929
96	0xbc7c9343	-0.015415969
97	0x3d6f3704	0.058402076
98	0x3e1df6ab	0.15426128
99	0xbe0acd09	-0.13554777
100	0xbbf4e65e	-0.007473751
101	0x3cf62095	0.030044833
102	0xbd20fcd6	-0.039303623
103	0xbe8e8a09	-0.27839687
104	0x3d802f02	0.06258966
105	0x3da15ae0	0.07878661
106	0x3c513427	0.012768782
107	0x3e2d67bb	0.16934101
108	0xbda9c099	-0.08288688
109	0x3c897cb4	0.016783096
110	0x3ca639b4	0.020291187
111	0xbd4ffddc	-0.05077921
112	0x3e3fe257	0.18738686
113	0x3e233c62	0.15941003
114	0xbd9054ac	-0.070474
115	0x3d098221	0.033571366
116	0xbcc6ea93	-0.024281776
117	0xbe5ebcd1	-0.21751715
118	0x3d0cffef	0.034423765
119	0xbdb1aa5e	-0.08675073
120	0xbe12f058	-0.14349496
121	0xbe367df7	-0.1782149
122	0x3dd8e5d9	0.10590715
123	0xbdd2f509	-0.10300643
124	0xbe4a7ca5	-0.1977411
125	0xbe4da566	-0.20082626
126	0x3dc0eb25	0.0941985
127	0xbdda702f	-0.106659286
128	0xbe731095	-0.23736794
129	0xbe61e60d	-0.22060414
130	0x3da449f2	0.080219164
131	0x3df912bd	0.12161777
132	0xbce7b5fc	-0.02828502
133	0xbe573544	-0.21016413
134	0x3e101b1f	0.14072846
135	0xbdd504ab	-0.10401281
136	0x3df3a687	0.11896997
137	0xbdc3343f	-0.095314495
138	0x3d8c8e8d	0.06863127
139	0xbdca4301	-0.09876061
140	0xbccbd279	-0.024880635
141	0x3d4cd74b	0.050010007
142	0xbd9b0269	-0.07568819
143	0x3cab7b08	0.02093269
144	0x3e2954fe	0.16536328
145	0x3d2129f0	0.039346635
146	0xbdc400a2	-0.09570433
147	0xbd5aeecb	-0.053450387
148	0xbe040439	-0.12892236
149	0xbddadfb2	-0.10687198
150	0xbd771c1b	-0.060329538
151	0x3de6fbae	0.11278473
152	0xbdd83d22	-0.10558535
153	0x3d2fc055	0.04290803
154	0xbde49545	-0.111612834
155	0xbe2ab992	-0.16672352
156	0x3db66f2a	0.089079216
157	0x3e55d287	0.20881091
158	0x3e16c212	0.1472247
159	0xbe5a3f25	-0.2131315
160	0xbdf9be16	-0.12194459
161	0x3d03c091	0.032166068
162	0xbe7281fb	-0.23682396
163	0xbd990b9f	-0.0747292
164	0xbb0de5d6	-0.0021651885
165	0xbccb99e9	-0.024853664
166	0xbdd0e6e9	-0.102002926
167	0xbd99cbf8	-0.07509607
168	0xbdae1642	-0.08500339
169	0x3d89b9f6	0.06724922
170	0xbd8328ec	-0.064042896
171	0xbda7f3b3	-0.08200779
172	0xbdd75bc0	-0.10515547
173	0xbe2c177e	-0.16805837
174	0xbe7ebd83	-0.2487698
175	0xbd7274fa	-0.05919359
176	0x3dffa3b4	0.12482396
177	0xbb33ca5f	-0.0027433855
178	0xbdc3c124	-0.09558323
179	0x3e28485a	0.1643385
180	0x3dd99395	0.10623852
181	0xbdeaed0b	-0.114709936
182	0xbd2eb49a	-0.042652704
183	0xbe245250	-0.16047025
184	0xbd84c548	-0.06482941
185	0x3bdf22f4	0.0068095867
186	0xbd088ae2	-0.033335574
187	0x3e4b3d4c	0.19847602
188	0x3e2f7c4b	0.17137258
189	0x3d8a7dbc	0.06762263
190	0x3da62228	0.081119835
191	0xbe5f2d9e	-0.21794745
192	0x3d857605	0.06516651
193	0xbe461418	-0.19343603
194	0xbe4f906f	-0.20269941
195	0xbe1b7fc0	-0.15185452
196	0xbd1b7467	-0.037952807
197	0x3e3cc4ea	0.18434492
198	0xbbb338b9	-0.0054694084
199	0xbc5083ec	-0.012726765
200	0x3ce03e72	0.027373526
201	0xbdbbec4a	-0.09175928
202	0xbda09ca3	-0.07842376
203	0xbd89cde8	-0.067287266
204	0xbbb0253a	-0.0053755315
205	0xbcfd1fff	-0.030899046
206	0xbe2f04ad	-0.17091627
207	0xbe36ffcb	-0.17871015
208	0x3d965a3b	0.07341429
209	0xbe368cab	-0.17827098
210	0xbe857b71	-0.2607074
211	0xbca5f6ee	-0.020259347
212	0x3dd9ec26	0.10640745
213	0xbd85a069	-0.065247364
214	0xbe011d35	-0.12608798
215	0x3da9cab7	0.08290618
216	0x3dba3e6b	0.090939365
217	0x3d294b47	0.041331556
218	0x3dd3d4bc	0.1034331
219	0x3d497b2c	0.04918973
220	0x3e1b05cf	0.15138935
221	0x3db047c5	0.08607439
222	0x3d5cde28	0.053922802
223	0xbe787cd5	-0.2426637
224	0xbdd76b22	-0.10518481
225	0x3dcdee97	0.10055273
226	0xbbf4face	-0.0074761873
227	0x3ddd58b6	0.10807936
228	0xbe821727	-0.2540829
229	0xbdec6cba	-0.115441754
230	0x3de688a0	0.11256528
231	0xbe939c1a	-0.28830034
232	0xbde3cd6a	-0.11123164
233	0xbac2504f	-0.0014824959
234	0x3ded84ec	0.115976185
235	0x3d6c3ba0	0.05767405
236	0xbcc7ead8	-0.024403974
237	0xba9f17a3	-0.0012137782
238	0xbe0ec1e0	-0.13941145
239	0x3da8741a	0.082252696
240	0x3c316758	0.010827862
241	0x3da4a891	0.08039964
242	0x3dd214a5	0.10257844
243	0x3d6bae42	0.057539232
244	0xbdae85b5	-0.08521596
245	0xbcf27373	-0.029596066
246	0xbd04a06a	-0.032379545
247	0x3d83af2a	0.06429894
248	0xbd7a990e	-0.06118112
249	0x3b2322e3	0.002489262
250	0xbd5d7b88	-0.054072887
251	0xbdbbc203	-0.09167864
252	0xbda04023	-0.07824733
253	0x3e11f52f	0.14253686
254	0x3d88aaf6	0.06673233
255	0x3c7b30af	0.015331431

fc3.bias f4 [10]
0	0xbd67e1fd	-0.056612004
1	0xbcad3707	-0.021144403
2	0x3d8c7e09	0.06859977
3	0xbdcc46c6	-0.099744365
4	0xbd8d3d9b	-0.06896516
5	0xbb10e262	-0.002210759
6	0xbe1d7007	-0.15374766
7	0xbd1e1f81	-0.038604263
8	0x3b2b2514	0.002611463
9	0x3df41f53	0.11920037
